…
25-10-08 23:14:18.100 - INFO: Dataset [STDataset - train_style_transfer] is created.
25-10-08 23:14:18.101 - INFO: Number of train images: 103, iters: 13
25-10-08 23:14:18.101 - INFO: Total epochs needed: 3847 for iters 50,000
25-10-08 23:14:18.102 - INFO: Dataset [STDataset - val_style_transfer] is created.
25-10-08 23:14:18.102 - INFO: Number of val images in [val_style_transfer]: 103
25-10-08 23:14:20.203 - INFO: Network G structure: DataParallel - InvRescaleNet, with parameters: 287,356
25-10-08 23:14:20.203 - INFO: InvRescaleNet(
  (operations): ModuleList(
    (0): InvBlockExp(
      (F): ConvBlock(
        (conv1): Conv2d(2, 20, kernel_size=(3, 3), stride=(1, 1), padding=(1, 1))
        (conv2): Conv2d(20, 20, kernel_size=(3, 3), stride=(1, 1), padding=(1, 1))
        (conv4): Conv2d(20, 20, kernel_size=(3, 3), stride=(1, 1), padding=(1, 1))
        (conv5): Conv2d(20, 1, kernel_size=(3, 3), stride=(1, 1), padding=(1, 1))
        (lrelu): LeakyReLU(negative_slope=0.2, inplace=True)
      )
      (G): ConvBlock(
        (conv1): Conv2d(1, 20, kernel_size=(3, 3), stride=(1, 1), padding=(1, 1))
        (conv2): Conv2d(20, 20, kernel_size=(3, 3), stride=(1, 1), padding=(1, 1))
        (conv4): Conv2d(20, 20, kernel_size=(3, 3), stride=(1, 1), padding=(1, 1))
        (conv5): Conv2d(20, 2, kernel_size=(3, 3), stride=(1, 1), padding=(1, 1))
        (lrelu): LeakyReLU(negative_slope=0.2, inplace=True)
      )
      (H): ConvBlock(
        (conv1): Conv2d(1, 20, kernel_size=(3, 3), stride=(1, 1), padding=(1, 1))
        (conv2): Conv2d(20, 20, kernel_size=(3, 3), stride=(1, 1), padding=(1, 1))
        (conv4): Conv2d(20, 20, kernel_size=(3, 3), stride=(1, 1), padding=(1, 1))
        (conv5): Conv2d(20, 2, kernel_size=(3, 3), stride=(1, 1), padding=(1, 1))
        (lrelu): LeakyReLU(negative_slope=0.2, inplace=True)
      )
    )
    (1): InvBlockExp(
      (F): ConvBlock(
        (conv1): Conv2d(2, 20, kernel_size=(3, 3), stride=(1, 1), padding=(1, 1))
        (conv2): Conv2d(20, 20, kernel_size=(3, 3), stride=(1, 1), padding=(1, 1))
        (conv4): Conv2d(20, 20, kernel_size=(3, 3), stride=(1, 1), padding=(1, 1))
        (conv5): Conv2d(20, 1, kernel_size=(3, 3), stride=(1, 1), padding=(1, 1))
        (lrelu): LeakyReLU(negative_slope=0.2, inplace=True)
      )
      (G): ConvBlock(
        (conv1): Conv2d(1, 20, kernel_size=(3, 3), stride=(1, 1), padding=(1, 1))
        (conv2): Conv2d(20, 20, kernel_size=(3, 3), stride=(1, 1), padding=(1, 1))
        (conv4): Conv2d(20, 20, kernel_size=(3, 3), stride=(1, 1), padding=(1, 1))
        (conv5): Conv2d(20, 2, kernel_size=(3, 3), stride=(1, 1), padding=(1, 1))
        (lrelu): LeakyReLU(negative_slope=0.2, inplace=True)
      )
      (H): ConvBlock(
        (conv1): Conv2d(1, 20, kernel_size=(3, 3), stride=(1, 1), padding=(1, 1))
        (conv2): Conv2d(20, 20, kernel_size=(3, 3), stride=(1, 1), padding=(1, 1))
        (conv4): Conv2d(20, 20, kernel_size=(3, 3), stride=(1, 1), padding=(1, 1))
        (conv5): Conv2d(20, 2, kernel_size=(3, 3), stride=(1, 1), padding=(1, 1))
        (lrelu): LeakyReLU(negative_slope=0.2, inplace=True)
      )
    )
    (2): InvBlockExp(
      (F): ConvBlock(
        (conv1): Conv2d(2, 20, kernel_size=(3, 3), stride=(1, 1), padding=(1, 1))
        (conv2): Conv2d(20, 20, kernel_size=(3, 3), stride=(1, 1), padding=(1, 1))
        (conv4): Conv2d(20, 20, kernel_size=(3, 3), stride=(1, 1), padding=(1, 1))
        (conv5): Conv2d(20, 1, kernel_size=(3, 3), stride=(1, 1), padding=(1, 1))
        (lrelu): LeakyReLU(negative_slope=0.2, inplace=True)
      )
      (G): ConvBlock(
        (conv1): Conv2d(1, 20, kernel_size=(3, 3), stride=(1, 1), padding=(1, 1))
        (conv2): Conv2d(20, 20, kernel_size=(3, 3), stride=(1, 1), padding=(1, 1))
        (conv4): Conv2d(20, 20, kernel_size=(3, 3), stride=(1, 1), padding=(1, 1))
        (conv5): Conv2d(20, 2, kernel_size=(3, 3), stride=(1, 1), padding=(1, 1))
        (lrelu): LeakyReLU(negative_slope=0.2, inplace=True)
      )
      (H): ConvBlock(
        (conv1): Conv2d(1, 20, kernel_size=(3, 3), stride=(1, 1), padding=(1, 1))
        (conv2): Conv2d(20, 20, kernel_size=(3, 3), stride=(1, 1), padding=(1, 1))
        (conv4): Conv2d(20, 20, kernel_size=(3, 3), stride=(1, 1), padding=(1, 1))
        (conv5): Conv2d(20, 2, kernel_size=(3, 3), stride=(1, 1), padding=(1, 1))
        (lrelu): LeakyReLU(negative_slope=0.2, inplace=True)
      )
    )
    (3): InvBlockExp(
      (F): ConvBlock(
        (conv1): Conv2d(2, 20, kernel_size=(3, 3), stride=(1, 1), padding=(1, 1))
        (conv2): Conv2d(20, 20, kernel_size=(3, 3), stride=(1, 1), padding=(1, 1))
        (conv4): Conv2d(20, 20, kernel_size=(3, 3), stride=(1, 1), padding=(1, 1))
        (conv5): Conv2d(20, 1, kernel_size=(3, 3), stride=(1, 1), padding=(1, 1))
        (lrelu): LeakyReLU(negative_slope=0.2, inplace=True)
      )
      (G): ConvBlock(
        (conv1): Conv2d(1, 20, kernel_size=(3, 3), stride=(1, 1), padding=(1, 1))
        (conv2): Conv2d(20, 20, kernel_size=(3, 3), stride=(1, 1), padding=(1, 1))
        (conv4): Conv2d(20, 20, kernel_size=(3, 3), stride=(1, 1), padding=(1, 1))
        (conv5): Conv2d(20, 2, kernel_size=(3, 3), stride=(1, 1), padding=(1, 1))
        (lrelu): LeakyReLU(negative_slope=0.2, inplace=True)
      )
      (H): ConvBlock(
        (conv1): Conv2d(1, 20, kernel_size=(3, 3), stride=(1, 1), padding=(1, 1))
        (conv2): Conv2d(20, 20, kernel_size=(3, 3), stride=(1, 1), padding=(1, 1))
        (conv4): Conv2d(20, 20, kernel_size=(3, 3), stride=(1, 1), padding=(1, 1))
        (conv5): Conv2d(20, 2, kernel_size=(3, 3), stride=(1, 1), padding=(1, 1))
        (lrelu): LeakyReLU(negative_slope=0.2, inplace=True)
      )
    )
    (4): InvBlockExp(
      (F): ConvBlock(
        (conv1): Conv2d(2, 20, kernel_size=(3, 3), stride=(1, 1), padding=(1, 1))
        (conv2): Conv2d(20, 20, kernel_size=(3, 3), stride=(1, 1), padding=(1, 1))
        (conv4): Conv2d(20, 20, kernel_size=(3, 3), stride=(1, 1), padding=(1, 1))
        (conv5): Conv2d(20, 1, kernel_size=(3, 3), stride=(1, 1), padding=(1, 1))
        (lrelu): LeakyReLU(negative_slope=0.2, inplace=True)
      )
      (G): ConvBlock(
        (conv1): Conv2d(1, 20, kernel_size=(3, 3), stride=(1, 1), padding=(1, 1))
        (conv2): Conv2d(20, 20, kernel_size=(3, 3), stride=(1, 1), padding=(1, 1))
        (conv4): Conv2d(20, 20, kernel_size=(3, 3), stride=(1, 1), padding=(1, 1))
        (conv5): Conv2d(20, 2, kernel_size=(3, 3), stride=(1, 1), padding=(1, 1))
        (lrelu): LeakyReLU(negative_slope=0.2, inplace=True)
      )
      (H): ConvBlock(
        (conv1): Conv2d(1, 20, kernel_size=(3, 3), stride=(1, 1), padding=(1, 1))
        (conv2): Conv2d(20, 20, kernel_size=(3, 3), stride=(1, 1), padding=(1, 1))
        (conv4): Conv2d(20, 20, kernel_size=(3, 3), stride=(1, 1), padding=(1, 1))
        (conv5): Conv2d(20, 2, kernel_size=(3, 3), stride=(1, 1), padding=(1, 1))
        (lrelu): LeakyReLU(negative_slope=0.2, inplace=True)
      )
    )
    (5): InvBlockExp(
      (F): ConvBlock(
        (conv1): Conv2d(2, 20, kernel_size=(3, 3), stride=(1, 1), padding=(1, 1))
        (conv2): Conv2d(20, 20, kernel_size=(3, 3), stride=(1, 1), padding=(1, 1))
        (conv4): Conv2d(20, 20, kernel_size=(3, 3), stride=(1, 1), padding=(1, 1))
        (conv5): Conv2d(20, 1, kernel_size=(3, 3), stride=(1, 1), padding=(1, 1))
        (lrelu): LeakyReLU(negative_slope=0.2, inplace=True)
      )
      (G): ConvBlock(
        (conv1): Conv2d(1, 20, kernel_size=(3, 3), stride=(1, 1), padding=(1, 1))
        (conv2): Conv2d(20, 20, kernel_size=(3, 3), stride=(1, 1), padding=(1, 1))
        (conv4): Conv2d(20, 20, kernel_size=(3, 3), stride=(1, 1), padding=(1, 1))
        (conv5): Conv2d(20, 2, kernel_size=(3, 3), stride=(1, 1), padding=(1, 1))
        (lrelu): LeakyReLU(negative_slope=0.2, inplace=True)
      )
      (H): ConvBlock(
        (conv1): Conv2d(1, 20, kernel_size=(3, 3), stride=(1, 1), padding=(1, 1))
        (conv2): Conv2d(20, 20, kernel_size=(3, 3), stride=(1, 1), padding=(1, 1))
        (conv4): Conv2d(20, 20, kernel_size=(3, 3), stride=(1, 1), padding=(1, 1))
        (conv5): Conv2d(20, 2, kernel_size=(3, 3), stride=(1, 1), padding=(1, 1))
        (lrelu): LeakyReLU(negative_slope=0.2, inplace=True)
      )
    )
    (6): InvBlockExp(
      (F): ConvBlock(
        (conv1): Conv2d(2, 20, kernel_size=(3, 3), stride=(1, 1), padding=(1, 1))
        (conv2): Conv2d(20, 20, kernel_size=(3, 3), stride=(1, 1), padding=(1, 1))
        (conv4): Conv2d(20, 20, kernel_size=(3, 3), stride=(1, 1), padding=(1, 1))
        (conv5): Conv2d(20, 1, kernel_size=(3, 3), stride=(1, 1), padding=(1, 1))
        (lrelu): LeakyReLU(negative_slope=0.2, inplace=True)
      )
      (G): ConvBlock(
        (conv1): Conv2d(1, 20, kernel_size=(3, 3), stride=(1, 1), padding=(1, 1))
        (conv2): Conv2d(20, 20, kernel_size=(3, 3), stride=(1, 1), padding=(1, 1))
        (conv4): Conv2d(20, 20, kernel_size=(3, 3), stride=(1, 1), padding=(1, 1))
        (conv5): Conv2d(20, 2, kernel_size=(3, 3), stride=(1, 1), padding=(1, 1))
        (lrelu): LeakyReLU(negative_slope=0.2, inplace=True)
      )
      (H): ConvBlock(
        (conv1): Conv2d(1, 20, kernel_size=(3, 3), stride=(1, 1), padding=(1, 1))
        (conv2): Conv2d(20, 20, kernel_size=(3, 3), stride=(1, 1), padding=(1, 1))
        (conv4): Conv2d(20, 20, kernel_size=(3, 3), stride=(1, 1), padding=(1, 1))
        (conv5): Conv2d(20, 2, kernel_size=(3, 3), stride=(1, 1), padding=(1, 1))
        (lrelu): LeakyReLU(negative_slope=0.2, inplace=True)
      )
    )
    (7): InvBlockExp(
      (F): ConvBlock(
        (conv1): Conv2d(2, 20, kernel_size=(3, 3), stride=(1, 1), padding=(1, 1))
        (conv2): Conv2d(20, 20, kernel_size=(3, 3), stride=(1, 1), padding=(1, 1))
        (conv4): Conv2d(20, 20, kernel_size=(3, 3), stride=(1, 1), padding=(1, 1))
        (conv5): Conv2d(20, 1, kernel_size=(3, 3), stride=(1, 1), padding=(1, 1))
        (lrelu): LeakyReLU(negative_slope=0.2, inplace=True)
      )
      (G): ConvBlock(
        (conv1): Conv2d(1, 20, kernel_size=(3, 3), stride=(1, 1), padding=(1, 1))
        (conv2): Conv2d(20, 20, kernel_size=(3, 3), stride=(1, 1), padding=(1, 1))
        (conv4): Conv2d(20, 20, kernel_size=(3, 3), stride=(1, 1), padding=(1, 1))
        (conv5): Conv2d(20, 2, kernel_size=(3, 3), stride=(1, 1), padding=(1, 1))
        (lrelu): LeakyReLU(negative_slope=0.2, inplace=True)
      )
      (H): ConvBlock(
        (conv1): Conv2d(1, 20, kernel_size=(3, 3), stride=(1, 1), padding=(1, 1))
        (conv2): Conv2d(20, 20, kernel_size=(3, 3), stride=(1, 1), padding=(1, 1))
        (conv4): Conv2d(20, 20, kernel_size=(3, 3), stride=(1, 1), padding=(1, 1))
        (conv5): Conv2d(20, 2, kernel_size=(3, 3), stride=(1, 1), padding=(1, 1))
        (lrelu): LeakyReLU(negative_slope=0.2, inplace=True)
      )
    )
  )
  (operations_final): ModuleList(
    (0): InvBlockExp(
      (F): ConvBlock(
        (conv1): Conv2d(3, 20, kernel_size=(3, 3), stride=(1, 1), padding=(1, 1))
        (conv2): Conv2d(20, 20, kernel_size=(3, 3), stride=(1, 1), padding=(1, 1))
        (conv4): Conv2d(20, 20, kernel_size=(3, 3), stride=(1, 1), padding=(1, 1))
        (conv5): Conv2d(20, 3, kernel_size=(3, 3), stride=(1, 1), padding=(1, 1))
        (lrelu): LeakyReLU(negative_slope=0.2, inplace=True)
      )
      (G): ConvBlock(
        (conv1): Conv2d(3, 20, kernel_size=(3, 3), stride=(1, 1), padding=(1, 1))
        (conv2): Conv2d(20, 20, kernel_size=(3, 3), stride=(1, 1), padding=(1, 1))
        (conv4): Conv2d(20, 20, kernel_size=(3, 3), stride=(1, 1), padding=(1, 1))
        (conv5): Conv2d(20, 3, kernel_size=(3, 3), stride=(1, 1), padding=(1, 1))
        (lrelu): LeakyReLU(negative_slope=0.2, inplace=True)
      )
      (H): ConvBlock(
        (conv1): Conv2d(3, 20, kernel_size=(3, 3), stride=(1, 1), padding=(1, 1))
        (conv2): Conv2d(20, 20, kernel_size=(3, 3), stride=(1, 1), padding=(1, 1))
        (conv4): Conv2d(20, 20, kernel_size=(3, 3), stride=(1, 1), padding=(1, 1))
        (conv5): Conv2d(20, 3, kernel_size=(3, 3), stride=(1, 1), padding=(1, 1))
        (lrelu): LeakyReLU(negative_slope=0.2, inplace=True)
      )
    )
    (1): InvBlockExp(
      (F): ConvBlock(
        (conv1): Conv2d(3, 20, kernel_size=(3, 3), stride=(1, 1), padding=(1, 1))
        (conv2): Conv2d(20, 20, kernel_size=(3, 3), stride=(1, 1), padding=(1, 1))
        (conv4): Conv2d(20, 20, kernel_size=(3, 3), stride=(1, 1), padding=(1, 1))
        (conv5): Conv2d(20, 3, kernel_size=(3, 3), stride=(1, 1), padding=(1, 1))
        (lrelu): LeakyReLU(negative_slope=0.2, inplace=True)
      )
      (G): ConvBlock(
        (conv1): Conv2d(3, 20, kernel_size=(3, 3), stride=(1, 1), padding=(1, 1))
        (conv2): Conv2d(20, 20, kernel_size=(3, 3), stride=(1, 1), padding=(1, 1))
        (conv4): Conv2d(20, 20, kernel_size=(3, 3), stride=(1, 1), padding=(1, 1))
        (conv5): Conv2d(20, 3, kernel_size=(3, 3), stride=(1, 1), padding=(1, 1))
        (lrelu): LeakyReLU(negative_slope=0.2, inplace=True)
      )
      (H): ConvBlock(
        (conv1): Conv2d(3, 20, kernel_size=(3, 3), stride=(1, 1), padding=(1, 1))
        (conv2): Conv2d(20, 20, kernel_size=(3, 3), stride=(1, 1), padding=(1, 1))
        (conv4): Conv2d(20, 20, kernel_size=(3, 3), stride=(1, 1), padding=(1, 1))
        (conv5): Conv2d(20, 3, kernel_size=(3, 3), stride=(1, 1), padding=(1, 1))
        (lrelu): LeakyReLU(negative_slope=0.2, inplace=True)
      )
    )
    (2): InvBlockExp(
      (F): ConvBlock(
        (conv1): Conv2d(3, 20, kernel_size=(3, 3), stride=(1, 1), padding=(1, 1))
        (conv2): Conv2d(20, 20, kernel_size=(3, 3), stride=(1, 1), padding=(1, 1))
        (conv4): Conv2d(20, 20, kernel_size=(3, 3), stride=(1, 1), padding=(1, 1))
        (conv5): Conv2d(20, 3, kernel_size=(3, 3), stride=(1, 1), padding=(1, 1))
        (lrelu): LeakyReLU(negative_slope=0.2, inplace=True)
      )
      (G): ConvBlock(
        (conv1): Conv2d(3, 20, kernel_size=(3, 3), stride=(1, 1), padding=(1, 1))
        (conv2): Conv2d(20, 20, kernel_size=(3, 3), stride=(1, 1), padding=(1, 1))
        (conv4): Conv2d(20, 20, kernel_size=(3, 3), stride=(1, 1), padding=(1, 1))
        (conv5): Conv2d(20, 3, kernel_size=(3, 3), stride=(1, 1), padding=(1, 1))
        (lrelu): LeakyReLU(negative_slope=0.2, inplace=True)
      )
      (H): ConvBlock(
        (conv1): Conv2d(3, 20, kernel_size=(3, 3), stride=(1, 1), padding=(1, 1))
        (conv2): Conv2d(20, 20, kernel_size=(3, 3), stride=(1, 1), padding=(1, 1))
        (conv4): Conv2d(20, 20, kernel_size=(3, 3), stride=(1, 1), padding=(1, 1))
        (conv5): Conv2d(20, 3, kernel_size=(3, 3), stride=(1, 1), padding=(1, 1))
        (lrelu): LeakyReLU(negative_slope=0.2, inplace=True)
      )
    )
    (3): InvBlockExp(
      (F): ConvBlock(
        (conv1): Conv2d(3, 20, kernel_size=(3, 3), stride=(1, 1), padding=(1, 1))
        (conv2): Conv2d(20, 20, kernel_size=(3, 3), stride=(1, 1), padding=(1, 1))
        (conv4): Conv2d(20, 20, kernel_size=(3, 3), stride=(1, 1), padding=(1, 1))
        (conv5): Conv2d(20, 3, kernel_size=(3, 3), stride=(1, 1), padding=(1, 1))
        (lrelu): LeakyReLU(negative_slope=0.2, inplace=True)
      )
      (G): ConvBlock(
        (conv1): Conv2d(3, 20, kernel_size=(3, 3), stride=(1, 1), padding=(1, 1))
        (conv2): Conv2d(20, 20, kernel_size=(3, 3), stride=(1, 1), padding=(1, 1))
        (conv4): Conv2d(20, 20, kernel_size=(3, 3), stride=(1, 1), padding=(1, 1))
        (conv5): Conv2d(20, 3, kernel_size=(3, 3), stride=(1, 1), padding=(1, 1))
        (lrelu): LeakyReLU(negative_slope=0.2, inplace=True)
      )
      (H): ConvBlock(
        (conv1): Conv2d(3, 20, kernel_size=(3, 3), stride=(1, 1), padding=(1, 1))
        (conv2): Conv2d(20, 20, kernel_size=(3, 3), stride=(1, 1), padding=(1, 1))
        (conv4): Conv2d(20, 20, kernel_size=(3, 3), stride=(1, 1), padding=(1, 1))
        (conv5): Conv2d(20, 3, kernel_size=(3, 3), stride=(1, 1), padding=(1, 1))
        (lrelu): LeakyReLU(negative_slope=0.2, inplace=True)
      )
    )
  )
  (uninvBranch): Identity()
)
25-10-08 23:14:20.203 - INFO: Loading model for G [/home/hesong/disk1/DF_INV/code/ControlNet-v1-1-nightly/inv_modules/IVOP/experiments/style_inv_archived_250927-194353/models/latest_G.pth] ...
/home/hesong/anaconda3/envs/control-v11/lib/python3.8/site-packages/torchvision/models/_utils.py:208: UserWarning: The parameter 'pretrained' is deprecated since 0.13 and will be removed in 0.15, please use 'weights' instead.
…
